cnn.pth (torch, 281495 bytes, 10 tensors)

conv1.weight f4 [6, 3, 5, 5]
000000 78 70 84 3b d8 ca 59 bd 7a 0c 8e 3b f7 f6 02 be
       0.0040417276 -0.053171962 0.0043349834 -0.12789522
000010 61 d8 b2 bd ac 90 fb bd 13 9a 8b bc 2a 7d e6 bc
       -0.08732677 -0.12283453 -0.017041242 -0.028135855
000020 4e be 8e bc 52 6a 0c be c9 be 33 3d 55 f2 6e 3d
       -0.017424729 -0.13712433 0.04388312 0.058336575
000030 b0 46 c8 bd da 20 b0 bd 49 c3 00 be 71 51 34 3d
       -0.097791076 -0.08600016 -0.12574495 0.04402298
000040 ae 4e e1 bd 54 41 b6 3c 88 a7 70 3d 8c 56 a1 3d
       -0.11001335 0.022247948 0.05875352 0.07877836
000050 4a df 97 3d 0d 51 e4 3c 65 4a 96 3d 0b 06 25 bd
       0.07415636 0.02787068 0.073384084 -0.040288966
000060 d9 bd 51 bd a7 fb 4f 3c 88 cc b6 3d ae 95 32 3d
       -0.051206443 0.012694276 0.0892573 0.043599777
000070 d8 37 ba 3d e9 92 8a bd 0d 37 f1 bd 8a 8f 60 bd
       0.090926826 -0.06766302 -0.11778078 -0.05482439
000080 65 90 70 3d 17 e8 11 bd 80 64 c6 bc 20 f1 c6 bc
       0.058731455 -0.03562173 -0.024217844 -0.0242849
000090 f8 ce af 3d b1 cb 65 bd 09 38 01 bd e4 88 5c 3c
       0.08584398 -0.05610246 -0.03154758 0.013460372
0000a0 3d f7 2f bc ae a0 cc 3d 98 44 09 3e 3f 23 aa 3d
       -0.010740099 0.09991585 0.13405073 0.08307504
0000b0 c9 ff 09 3d af be 8a 3d 27 7d 91 bd e7 a9 93 3d
       0.0336912 0.06774651 -0.07103949 0.07210141
0000c0 d9 43 56 bc 2f 34 8a bd ae f5 1a 3d 77 bd 02 3d
       -0.0130777 -0.067482345 0.037831955 0.03191897
0000d0 4b 29 e1 3d 3d 91 3c 3e 68 67 48 3e 7c d2 29 3e
       0.10994204 0.18414779 0.19570696 0.165842
0000e0 bc b4 93 3d 31 02 7b 3d e3 9a 56 3e dd 59 73 3e
       0.07212207 0.061281387 0.20957522 0.23764749
0000f0 44 cb 2a 3e 3c 91 48 3e 45 d9 f2 3d fc 76 1f 3e
       0.16679102 0.19586653 0.11857847 0.15572733
000100 70 40 0c 3e a5 c2 de 3d fd 13 03 3e d9 05 ef 3d
       0.13696456 0.10876969 0.12800594 0.11671037
000110 4b 28 37 3d 95 15 05 3e e2 97 2c 3e 27 ee 4e 3e
       0.04471616 0.12996514 0.16854814 0.20208035
000120 9f 28 f3 bb 18 62 95 3d 0b 6f 2b 3e 97 9f 1b be
       -0.007420614 0.072941005 0.16741578 -0.15197597
000130 a6 c5 87 3d 68 fd b9 3d 74 68 2f 3e ad e8 fd 3d
       0.06629495 0.090815365 0.1712969 0.12397895
000140 0b 08 81 bd e1 3c 91 3d 46 a6 9e 3d 4f 97 0e 3e
       -0.06300362 0.0709169 0.07746558 0.13924907
000150 f7 48 4a 3d cf db 14 be e9 91 fb 3c 81 29 2e 3e
       0.04938599 -0.14536975 0.030709224 0.1700802
000160 8a 54 dd 3d c7 2b 0d 3e b8 84 55 bc ba a4 12 3c
       0.1080714 0.13786231 -0.013032131 0.008950407
000170 cf 98 90 3d a6 50 15 3e 9e 7a 15 3e 0d 9f b3 bd
       0.07060396 0.14581546 0.14597556 -0.08770571
000180 ab f8 83 bb 48 71 a8 3d 1f 69 a8 3d 2c 85 8f 3d
       -0.0040274463 0.08224732 0.08223175 0.070078224
000190 a2 6c 0c be 10 d4 39 be 91 51 b2 bd 5d 5a 92 3d
       -0.13713315 -0.18147302 -0.08706964 0.07146142
0001a0 50 b4 dc bd a6 28 e5 bd e7 fa 0c be df 45 95 bd
       -0.107765794 -0.11189394 -0.13767587 -0.072887175
0001b0 9e 2e d2 3d d2 0b a8 3c 62 c5 48 be 23 5f a5 bd
       0.10262798 0.020513449 -0.19606546 -0.080747865
0001c0 e2 d6 92 3c c9 db f2 3c b1 a6 d5 3d 44 2e 03 be
       0.01792473 0.029645817 0.104321845 -0.12810618
0001d0 ab 8f 87 bd 31 98 da bd 65 18 9e 3d 64 59 41 3d
       -0.06619199 -0.106735595 0.07719497 0.04720439
0001e0 bc 07 96 3c 67 c7 95 bd 7a 31 00 3d 0d 68 1c bd
       0.018314235 -0.073134236 0.031297185 -0.038185168
0001f0 dd c6 45 bd a7 db 77 bd d3 d8 9d bd ad c3 ca 3d
       -0.048285354 -0.06051221 -0.077073716 0.099006034
000200 ef f1 29 3e ac ca 69 3d 0a 9b bf bd 22 71 46 bd
       0.16596197 0.05707805 -0.09355743 -0.048447736
000210 5c 78 be 3d 15 16 41 3e 04 37 c8 3d 77 6e b3 ba
       0.093003005 0.1885608 0.097761184 -0.0013689537
000220 8e 4a c0 bd 94 1d 2b 3e 36 b4 78 3d 07 4d 4a 3e
       -0.0938922 0.16710502 0.060718738 0.19755946
000230 58 d2 96 bd 35 a4 ff 3d c0 a0 4d 3e 9b 13 60 3d
       -0.07364339 0.12482492 0.20080853 0.054706197
000240 fc 84 2e 3e 94 3a a1 bd 13 0e 25 bd 6e 57 3c 3d
       0.17042917 -0.07872501 -0.040296625 0.045981817
000250 5f 32 49 3e 9f ad 27 3e f0 e3 59 bd 33 da 3c 3d
       0.19648121 0.16374825 -0.053195894 0.04610653
000260 1b ad 8b bc be af 45 bd 55 60 ef bd eb 39 58 3d
       -0.017050317 -0.048263304 -0.11688296 0.05278961
000270 f0 0e dc bc bc 79 be bc 5a 99 c2 bc 90 ca 07 bc
       -0.026862592 -0.023251407 -0.023754764 -0.008288041
000280 49 89 56 be aa 49 54 bd 63 38 1a be c9 b5 9c bd
       -0.20950808 -0.051828064 -0.15060572 -0.0765186
000290 0a 2c 47 be af b3 3c be f3 89 90 be 23 2a 56 be
       -0.19450393 -0.18427919 -0.28230247 -0.20914511
0002a0 99 75 81 be 93 67 bf bd 1f a8 d4 bd 3d d2 f9 bd
       -0.25285032 -0.09345927 -0.10383629 -0.12198303
0002b0 96 46 b5 bd 4e 52 22 3d bb 7a 26 bd 9b e4 df bd
       -0.08851354 0.039629273 -0.04064439 -0.10932275
0002c0 b4 bb b8 3c 83 7b b4 3c b5 ea 07 3d 5c d3 98 bd
       0.022550441 0.022031551 0.03318282 -0.074621886
0002d0 bd 5a b8 bd 73 3a 82 3c 34 32 80 bd f9 66 1e 3d
       -0.09001682 0.015897011 -0.062595755 0.03867242
0002e0 a6 a1 76 3d cd 1b f6 3a 9e a3 b6 3c 8a 1f d9 bd
       0.060212754 0.0018776596 0.022294816 -0.10601719
0002f0 3d 43 b9 3b 1f 55 c6 bb d1 a5 e4 bd 86 65 ea bd
       0.0056537674 -0.0060526277 -0.111644395 -0.11445145
000300 4c 93 17 bc 49 a3 09 be 88 5c 1a bc 95 2f bc 3a
       -0.009251427 -0.13441195 -0.009421475 0.0014357442
000310 5a 6c 95 3d c8 c4 04 bd 97 72 ad bd 00 ff a9 bb
       0.07296057 -0.032414228 -0.08469122 -0.005187869
000320 ae e7 ee 3d c4 1f dd 3d e9 db c6 3c 38 a4 0e 3e
       0.11665283 0.107970744 0.024274783 0.13929832
000330 17 95 1c 3e 61 90 8d 3d 0a 3f cd 3c bf 5a 0a 3e
       0.15291248 0.06912304 0.025054473 0.1351118
000340 c9 d8 51 3e b5 1d 16 3e be 84 ee 3d 8e ec 32 3e
       0.20492853 0.1465977 0.11646412 0.17473051
000350 56 03 10 3e d8 2f 96 b9 ff b4 cc 3d fb e0 97 bb
       0.14063773 -0.00028645876 0.0999546 -0.004634974
000360 59 2e 6a bc fd ed a1 3c d4 0c 82 bc 9d 3c 9e bd
       -0.014293277 0.019766802 -0.015875258 -0.07726405
000370 7c e9 de 3d e8 6e 93 3d 1e d2 02 3e e5 b3 cf 3d
       0.10884377 0.07198888 0.12775466 0.10141734
000380 58 3d 25 3c c4 57 93 bd f1 fd eb 3c 38 f4 bd 3d
       0.010085426 -0.07194474 0.028807612 0.09275097
000390 72 b5 65 3e a4 0b 1d 3e 30 ac 12 be 77 f5 a1 bd
       0.22432497 0.15336472 -0.14323497 -0.07908147
0003a0 7a 21 69 3d a0 31 0f 3d 48 d4 3b 3e 3f 80 2b bd
       0.05691669 0.034959435 0.18342698 -0.041870352
0003b0 a1 05 1e be 49 11 00 be ed 34 34 bd 72 d5 c4 3d
       -0.15431835 -0.12506594 -0.043995786 0.09611024
0003c0 74 98 da 3d 89 72 cf bd 51 5e b5 bd e6 7d 2b be
       0.106736094 -0.10129268 -0.0885588 -0.16747245
0003d0 d8 5e d6 bd e8 e0 c1 3c c3 d0 03 3e 59 44 6a bd
       -0.10467309 0.023666814 0.12872605 -0.057194088
0003e0 12 d1 0f be 0b db ea bc 0a 7e 48 be 9b bb b9 bd
       -0.14044598 -0.028668901 -0.1957933 -0.09068986
0003f0 f9 42 00 be de da f3 3d 41 4a 29 bd 6c 2b ba bd
       -0.12525548 0.1190698 -0.04133058 -0.09090313

conv1.bias f4 [6]
000000 64 a4 8d 3e 17 69 a2 3e a7 40 c7 3e 30 d4 09 3f
       0.27664483 0.31720802 0.38916513 0.538394
000010 71 b1 48 bd 79 85 6c be
       -0.048997346 -0.23097791

conv2.weight f4 [16, 6, 5, 5]
000000 b2 b4 33 3d 2b 67 45 3c ef cf 04 3d 9c 4a 96 3c
       0.043873496 0.012048523 0.032424863 0.018346123
000010 b5 81 35 bd 90 90 9b 3b 89 00 09 3e c7 0a 5a bd
       -0.04431315 0.004747458 0.1337911 -0.053232934
000020 81 e3 93 bd 45 71 88 bd a4 82 33 3c bf 22 d6 3c
       -0.07221127 -0.066622294 0.01095644 0.026139615
000030 9d 0a 84 3d 42 ec ba bd 85 16 51 bd 96 d0 63 3d
       0.06447337 -0.09127094 -0.051046867 0.055618845
000040 6c 5a 49 bc 22 06 84 3c 4f 9a 1b bc b8 b5 7a bc
       -0.012289625 0.016116206 -0.009497239 -0.015302114
000050 fe d3 e2 3d d7 0a 8a 3d c8 36 7a bd 9e 1d 98 bd
       0.110755906 0.06740349 -0.0610874 -0.07427524
000060 a7 8b cb bd 2b cd 1b 3e be 6c ec 3d 23 0d c2 bd
       -0.09938746 0.15214984 0.115441784 -0.09475162
000070 69 17 3a bd 0b 3f 95 bd ce 74 a7 3d 63 ff 91 3d
       -0.045432482 -0.07287415 0.081765756 0.07128789
000080 ad d9 e2 bd 3e 50 41 3c 7c 76 c3 bd c3 f1 25 3e
       -0.110766746 0.011798916 -0.095440835 0.16205506
000090 df 64 93 3d 36 96 94 bd cd 80 02 be a1 b6 83 3d
       0.07196974 -0.07255213 -0.12744446 0.06431318
0000a0 20 f8 08 3e 84 87 a7 3d 69 88 81 bd a7 73 91 bd
       0.13375902 0.081801444 -0.06324846 -0.07102137
0000b0 d2 24 8f bd eb 91 8c 3d 88 30 c4 3d 50 8e 05 bb
       -0.06989445 0.06863769 0.09579569 -0.0020379014
0000c0 34 a3 00 3d 73 0b 83 bd 4a 57 7f bd 8f 90 04 bd
       0.031405643 -0.06398668 -0.062339105 -0.032364424
0000d0 9e a3 49 3d b9 cb fd bc 5b c5 9b bc b2 2d 62 bc
       0.049228303 -0.030980932 -0.019015005 -0.01380484
0000e0 89 d5 99 bd 41 53 0f 3d d0 46 b6 3c 45 fe b1 3d
       -0.07511432 0.034991506 0.022250563 0.08691076
0000f0 2a fb 9b 3d ee 3b 06 bd f2 ba 08 bd 3c 08 2a 3c
       0.07616265 -0.032771997 -0.03338141 0.01037794
000100 f8 a7 b3 3d 46 e4 bc bb b0 5d ab 3c d4 e3 08 bc
       0.08772272 -0.005764517 0.020918697 -0.0083551
000110 ca b1 54 3d 76 c7 95 3d a4 69 16 bd ab 85 47 bd
       0.051927365 0.07313435 -0.03672184 -0.04871146
000120 f6 5f 85 bd e6 e0 16 bc 2a be 43 3d ee ae 79 bd
       -0.06512444 -0.009208893 0.047788776 -0.06095784
000130 e3 de 81 bb ef e6 6f 3d ee 68 53 3c de 69 d2 3d
       -0.0039633377 0.058569845 0.012903435 0.10274099
000140 c5 48 a3 bd f6 2f 34 bd 8c 13 b0 bc d6 83 07 3e
       -0.07972864 -0.04399105 -0.021493696 0.13233885
000150 93 44 87 3d 71 fd 18 3d ad b5 0c be 35 4a 94 bd
       0.06604876 0.037351076 -0.13741179 -0.07240716
000160 de 72 00 3e 64 d5 45 3d 47 bb 9c bd 4a 1e e1 bd
       0.12543818 0.04829921 -0.07652908 -0.10992105
000170 9d ea 4b 3c a4 50 df 3d fa 24 26 3e ee ba 0a bb
       0.012446073 0.10904053 0.16225043 -0.0021168548
000180 4b 2b d4 bd 9a 9b 83 bd 29 69 eb bc ec db 0b 3d
       -0.1035982 -0.06426163 -0.028736668 0.03414528
000190 fb c2 4d 3d 1c 5a 67 bd cd 1f 7c 3c 17 55 b7 3d
       0.050234776 -0.05648242 0.015388441 0.089517765
0001a0 43 d5 bd 39 53 20 27 bd 14 e1 18 bc 81 c6 bc bb
       0.00036207782 -0.04080231 -0.009331007 -0.005760968
0001b0 00 98 71 bc 26 ba 84 3b 2f 8c e2 bc 02 f0 9e 3d
       -0.014745712 0.004050511 -0.027654735 0.077606216
0001c0 28 7c 94 bc fd 12 af 3d 3d 88 fd bc 77 53 e3 bc
       -0.018125609 0.085485436 -0.030948753 -0.02774976
0001d0 20 aa 9a 3d 9c 79 8e 3d 5d b4 d0 3c b4 b9 99 bd
       0.0755198 0.06956789 0.025476629 -0.07506123
0001e0 f2 27 5c 3d 0e 1d 7c 3c 24 b6 a4 bc c5 a2 40 bd
       0.053749032 0.015387787 -0.020106383 -0.04703023
0001f0 43 c5 1c bc 60 ff 39 3d 85 64 90 3d 40 85 61 bd
       -0.009568515 0.04540956 0.070504226 -0.055058718
000200 b8 65 53 bd e1 f8 37 3c 94 4c 5b bd da 16 24 bd
       -0.05161068 0.011228771 -0.053539827 -0.040060855
000210 58 19 9e 3c 27 5b 29 bc 10 46 65 3d 47 68 92 3c
       0.019299194 -0.010336674 0.05597502 0.017871989
000220 b1 50 cc 3c 68 d4 b7 bd aa 3a b3 bd fd 3d 07 3b
       0.02494082 -0.0897606 -0.08751424 0.0020636313
000230 f3 8a 86 bd 33 7f f2 3c 6e a1 3d 3d 20 57 f5 3c
       -0.06569471 0.029601669 0.04629653 0.029948771
000240 b9 cd dc bc 24 60 ad 3b 9d 25 a9 bc 1a 18 73 bc
       -0.026953565 0.005291002 -0.020647818 -0.014837289
000250 b9 97 14 bd 2b 2b 78 bd 00 9b 99 3d 33 95 15 3e
       -0.036277507 -0.060588043 0.07500267 0.14607696
000260 e4 0e d5 3d dd 9f 07 3e e7 c4 da 3d db 91 91 3d
       0.10403231 0.13244577 0.106820874 0.07107898
000270 c9 8a ee 3d 9c 2b f4 3d 10 9a eb 3d fe 37 56 3d
       0.11647565 0.1192238 0.115039945 0.052299492
000280 37 43 5e 3d ef 4d 00 bd 49 59 3a bc 64 02 9b 3c
       0.05426332 -0.031324323 -0.011373826 0.018922038
000290 43 79 7a 3d d6 12 4e 3d 36 54 a9 3c 69 5f 80 bc
       0.0611508 0.050310932 0.020670038 -0.015670495
0002a0 d0 81 98 bd 9b d2 8c 3d 5b 9a 9a 3d d1 41 a0 bc
       -0.07446635 0.06876107 0.07548972 -0.019562634
0002b0 b4 bb 38 3d 07 66 33 bc 5a 31 c6 3b e1 18 49 bd
       0.045100883 -0.010949618 0.0060483636 -0.049095992
0002c0 0c 6b e4 3c 9a 47 0e bd cb 45 1c 3d 38 49 d6 3b
       0.027883075 -0.034736253 0.038152497 0.00653949
0002d0 c5 00 21 3d 49 4b d2 bd be 74 62 bd 35 d4 e7 bd
       0.039307375 -0.10268266 -0.055287115 -0.11319772
0002e0 f2 91 65 3b 6d eb 0c 3d a1 31 5e 3d ba 5c 3e bb
       0.0035029617 0.034404207 0.05424655 -0.0029046969
0002f0 26 5a 21 bd 87 f8 b8 bd 74 bc de 3c 86 c0 15 ba
       -0.039392613 -0.09031778 0.02718947 -0.0005712587
000300 9a 3a db 3c d1 cb c0 bd 81 32 8e bd a1 4d e3 bc
       0.026761342 -0.09413875 -0.069432266 -0.027746977
000310 6d b2 de bd 77 e6 3a 3c bf 52 06 be 11 c0 d6 3b
       -0.10873876 0.011407486 -0.13117503 0.006553658
000320 46 59 55 3d 2c c2 d0 3d bb b2 bb 3c 5c 3b ab 3d
       0.05208709 0.10193285 0.022912374 0.08360931
000330 7a 5d 62 3d 01 f4 da 3d 92 20 06 3e 35 1b ea 3d
       0.055264927 0.10691071 0.13098362 0.114309706
000340 f8 a0 c9 3d d5 41 05 3e ed 83 1b 3d ab 3d 7a 3c
       0.098451555 0.13013394 0.03796761 0.015273492
000350 2f 59 ec 3d a1 49 8a 3d 5e 49 d9 3d 4d 07 73 3d
       0.11540448 0.06752325 0.10609697 0.059333134
000360 a2 6d 09 3c 87 de 0b 3e 90 31 8c 3d bc 2d 86 bc
       0.008387955 0.13659106 0.06845391 -0.01637923
000370 f6 a5 11 3e c3 6b 67 3d cb 20 08 3d 5f 38 02 3d
       0.14223465 0.056499254 0.0332344 0.03179204
000380 ac 4d dd 3d 1a 27 78 bd 51 d7 09 be 28 d9 b0 bd
       0.1080583 -0.060584165 -0.13461043 -0.08635169
000390 6e fa 11 be e4 12 13 be 0f c5 b6 bc 66 6b e8 bc
       -0.14255688 -0.14362675 -0.022310762 -0.028371524
0003a0 96 e8 c6 3c 69 3a 27 bd 6f 9b 32 3d 54 00 16 bd
       0.024280827 -0.04082719 0.043605264 -0.036621407
0003b0 92 8c b2 bc 21 e1 03 3c 57 b9 af bc 40 dd 42 bd
       -0.021795545 0.00804928 -0.021450682 -0.04757428
0003c0 aa 4a ce 3d 58 47 15 3d 27 f5 19 3d c6 a0 09 3c
       0.10072835 0.03644499 0.03758731 0.008400148
0003d0 73 29 57 3c a0 d2 20 3d 85 38 08 3e 54 0a 60 3d
       0.013132441 0.039263368 0.1330281 0.05469735
0003e0 8f 7e 6c bc 9f 06 ed 3d b5 3b 86 bc 09 57 b5 3d
       -0.014434471 0.115735285 -0.016385892 0.08854491
0003f0 ce 99 17 3d 8f c7 31 3c 93 07 ac 3d e5 3e 8d 3d
       0.037011914 0.010850801 0.08399882 0.06896762

conv2.bias f4 [16]
000000 b0 19 43 be 5a c9 96 3d 0b fb 58 3e 02 72 36 3e
       -0.19052768 0.073626235 0.21189515 0.17816928
000010 45 69 f7 bb 0a e5 10 3d c5 3c ba 3d a1 bb 63 bd
       -0.007550391 0.03537468 0.09093622 -0.05559886
000020 29 95 60 be ca 77 74 3c ed 57 b2 bd c5 fc 81 3c
       -0.219319 0.014921138 -0.08708177 0.0158676
000030 e4 82 c3 3d 47 59 dc 3d 50 64 56 3e 4a 67 65 3d
       0.0954645 0.10759216 0.20936704 0.056006707

fc1.weight f4 [120, 400]
000000 8d bb 15 3c 2d 49 72 3b 45 97 0a bd e4 99 27 3d
       0.009138954 0.0036969886 -0.033835668 0.040918246
000010 15 5f f6 bc 4c 93 3e bd 1e bf 38 3d 09 af 35 ba
       -0.030074636 -0.046527192 0.04510414 -0.00069306843
000020 ab a7 d7 bb ef ff f6 3c 47 01 11 3d 95 07 bf bc
       -0.006581267 0.030151336 0.03540161 -0.023319045
000030 dd a7 ce bb 1f db ff bc 43 48 10 bd 4a ee 51 bd
       -0.006306632 -0.031232415 -0.035225164 -0.05125264
000040 f1 70 a4 3c b7 a6 0d bd 01 a8 dd 3c 33 fe f7 bc
       0.020073386 -0.03458282 0.02705765 -0.030272579
000050 92 1e 20 3d 36 66 60 bb df bf 19 3c cf e6 dd bc
       0.039091654 -0.003424061 0.009384125 -0.027087597
000060 5b af ca 3c 19 38 ca bb 82 21 0c 3c 50 19 6f 3c
       0.02474182 -0.006171238 0.008552911 0.014593437
000070 d0 c5 ce ba b6 67 cd bc 8c a9 14 39 97 2c 57 3c
       -0.0015775505 -0.025073867 0.00014177541 0.01313319
000080 bc 5f 38 3d 4e 91 9f bc 3c fc 73 bc 72 7c 1f 3d
       0.045013174 -0.019478466 -0.01489168 0.03893704
000090 e7 44 01 3d ac 8d 9e bc 5b 65 3a bd 91 44 ea 3c
       0.03155985 -0.019354664 -0.045506816 0.028597148
0000a0 b3 26 b4 3b 8e 2a dc 3c 5c 26 1f bd 21 a1 27 3d
       0.0054977774 0.02687576 -0.03885494 0.04092515
0000b0 0a 2f b6 3c d8 f2 ee 3c 41 e7 7f 3d b6 2a 94 3d
       0.022239227 0.029168531 0.0624764 0.07234709
0000c0 93 4a b7 3d 48 0e fe 3c 6c b4 fa 3a b4 ca 8e 3c
       0.08949771 0.03101267 0.0019127256 0.01743064
0000d0 21 dc 10 bc 3a 64 72 bc 67 79 04 bb 37 36 1f 3c
       -0.008841545 -0.014794404 -0.0020213963 0.009717516
0000e0 f1 75 4c bc ea bb 52 3b 75 6a 34 3d d4 94 29 3c
       -0.012479291 0.0032155463 0.044046838 0.010350425
0000f0 ec f5 44 bd 85 68 d0 bb 23 79 48 bc ce 88 18 3c
       -0.048086092 -0.006360116 -0.0122359125 0.0093099605
000100 85 82 e0 3c d7 dd 04 bc c2 3d e3 bc 13 6a d6 3c
       0.027405987 -0.008109531 -0.02773941 0.026173627
000110 8e 6a 26 bc bf 9a 22 bd 9e 41 ea bc 35 7b cc bb
       -0.010157241 -0.03969836 -0.028595742 -0.0062402734
000120 82 02 c5 bc c6 2f cc bb f8 ce 0c bd c4 23 d7 bc
       -0.024049047 -0.006231281 -0.03437707 -0.026262172
000130 68 db 09 3b ce 86 e2 bc 58 65 a2 3b 11 99 9f 3d
       0.0021035317 -0.02765217 0.004955929 0.07792867
000140 6d da 41 bd 04 06 a6 3c 78 e7 48 bd 0b 57 2f 3c
       -0.047327448 0.02026654 -0.04904887 0.010701905
000150 73 fa 6c 3d 60 ab 12 3c d0 97 f7 bc b9 2a 0c bc
       0.057856034 0.008951992 -0.030223757 -0.008555108
000160 a2 ab 2e bd 38 83 64 bb ee 31 af 3c 71 35 3e bd
       -0.04264415 -0.0034868252 0.021386113 -0.046437684
000170 ec 26 97 bc 3e d1 99 3c 01 a6 28 3a 06 25 96 3c
       -0.018451177 0.018776532 0.0006433428 0.018328201
000180 f5 1e 6c 3c 62 c4 7c bd c8 d9 33 bd 8f 65 29 3d
       0.014411678 -0.061710723 -0.043908864 0.04135662
000190 7d 26 02 3d 82 60 35 bd cc a7 4e bd d2 b4 20 3d
       0.031774987 -0.04428149 -0.050452992 0.039234944
0001a0 8a a0 bd 3c e9 d9 3c bd 9b dd 20 3d b1 a3 be bb
       0.02314784 -0.046106253 0.03927384 -0.0058178534
0001b0 28 cd 2e 3d 83 d9 d9 bc 40 7e 66 bc 35 54 46 3d
       0.04267612 -0.026592975 -0.014068186 0.04842015
0001c0 b9 98 e8 bc 07 09 90 bc 82 f4 76 bc 6d 50 37 bd
       -0.028393136 -0.01758243 -0.015072944 -0.044754434
0001d0 cc 4f 46 3d bf c8 0c 3d 85 cc 0d 3d fb db a1 3c
       0.048415944 0.034371134 0.034618873 0.019758215
0001e0 d3 e8 33 3d 79 81 a1 bc 44 08 0a 3d 81 c2 22 3d
       0.04392321 -0.019715058 0.03369929 0.039736275
0001f0 16 c6 ae 3a 6a 09 48 bd bb db 2f bd 21 2c 16 3c
       0.0013334181 -0.048837103 -0.04293416 0.009165795
000200 30 e7 79 bc 74 78 17 3d a9 bf 39 bd cd fa 1f 3d
       -0.015252873 0.036980107 -0.045348797 0.03905754
000210 14 a0 09 bd 59 f2 82 bc f0 33 4d 3c 08 8d 25 3c
       -0.033599928 -0.015984701 0.01252459 0.010104425
000220 23 c3 13 3d 7b e2 da bc 80 20 44 3c 82 9d b8 bb
       0.03607477 -0.026719322 0.011970639 -0.005634011
000230 7a 90 0a 3c f8 f2 94 3c 5e cb b1 3b e1 fc 31 bd
       0.008457297 0.018182263 0.0054258546 -0.043454055
000240 f8 2f 1b bd a0 f0 d4 3c 71 dd 0c 3c 96 fd 3f bc
       -0.037887543 0.025993645 0.008597718 -0.011718174
000250 8c 76 10 bd 70 86 e6 3c 2c 6a 5a 3d b4 f2 b8 bc
       -0.035269305 0.028140277 0.05332391 -0.022576667
000260 d7 07 dc bc ae 14 ca 3c cb d9 b6 3c 2a ec 08 3d
       -0.026859207 0.024668064 0.022320649 0.03342835
000270 d8 b2 09 3d 8e bc 24 3d a3 08 29 3d ee 99 64 bd
       0.033617824 0.040218882 0.041268002 -0.05581086
000280 8a d9 50 bd e5 1d 97 3c a2 f7 0e bd f0 93 b6 bb
       -0.05098871 0.018446872 -0.03490413 -0.0055718347
000290 2c 6d fa bb 85 87 43 bd 64 3e a1 3c 68 2c 19 3d
       -0.007642409 -0.047736663 0.01968307 0.037395865
0002a0 4f 3d 26 3d 6c 76 74 3c cc f4 85 bb fd 0e 07 bd
       0.040585812 0.014920812 -0.00408802 -0.03297328
0002b0 bb 72 07 bb 58 90 25 3d 43 f5 54 3d 70 dd 33 3c
       -0.002066775 0.04042086 0.051991712 0.010978088
0002c0 1e e7 3d 3c e7 e8 2d 3a b4 4d a0 3c 27 4b 2d bd
       0.011590747 0.00066341314 0.019568302 -0.042308
0002d0 2d d7 ae bc a0 93 10 bd 1d 20 b7 3c 3e 48 f4 bc
       -0.021342838 -0.035297036 0.02235418 -0.029819604
0002e0 fa 98 f5 bc af 23 05 bd 3b 6f 82 3b a6 ee 03 bd
       -0.029980171 -0.032504734 0.003980545 -0.032210015
0002f0 00 cd 78 bb 99 38 15 bc 50 88 77 3c c4 e5 0e bd
       -0.0037963986 -0.009107732 0.015108183 -0.03488709
000300 a5 8c 46 3d f7 b9 41 bc a8 9c 61 bc a6 66 67 3c
       0.048473973 -0.011824123 -0.01377026 0.014123594
000310 ae 21 56 3c 53 e3 ef 3c 19 da c3 3c 99 69 25 bd
       0.013069553 0.029283201 0.023907708 -0.04038391
000320 d0 7d 34 3b 31 72 da bb 9f a4 48 3d 11 b5 37 3d
       0.002754081 -0.0066664447 0.04898512 0.044850413
000330 f2 1b e6 bc ac 38 1f 3d 85 57 0a bd ff 5e 83 3d
       -0.028089497 0.038872406 -0.03377487 0.064146034
000340 21 ba f5 bc e1 11 34 bd 03 3e df 3c 4c 0c e5 bb
       -0.02999598 -0.043962363 0.02725125 -0.0069899913
000350 bf 69 a2 3c e7 f7 12 bd ef 21 35 3d 57 d5 c5 3c
       0.019825814 -0.03588095 0.044221815 0.02414958
000360 58 1f 87 bc 8d 66 ed bc f2 cb a9 bc 55 d2 88 3d
       -0.016494438 -0.028979564 -0.020727132 0.06680743
000370 70 98 7c 3c 97 50 72 3b e5 2a 23 3d d2 35 c2 3c
       0.015417203 0.0036974305 0.03983583 0.023707304
000380 2a 3d da 3c ee 4b 21 bd f0 d4 7c bc b9 86 11 3d
       0.026640493 -0.039379053 -0.015431628 0.035528872
000390 c7 dc 39 3d 36 66 32 bd c9 a5 9c 3b 83 3f b9 3c
       0.045376565 -0.043554507 0.0047805053 0.022613293
0003a0 ab 4a 23 bd 8f 7c e1 bb e7 ef 1d bd 0f e4 54 bc
       -0.03986613 -0.0068813036 -0.038558867 -0.0129938265
0003b0 05 43 41 3c f8 4e 10 bd bf 57 e6 b8 9d 18 48 3b
       0.011795764 -0.03523156 -0.000109835986 0.0030532249
0003c0 1f bf 87 bc 24 96 c3 bc 7a ef 09 3d 59 5c e6 bc
       -0.016570626 -0.023875304 0.03367565 -0.028120207
0003d0 50 9a 3f 3d 8d 44 2a 3d 69 95 d3 bc 90 37 43 bb
       0.046778023 0.04156928 -0.02582808 -0.0029787757
0003e0 59 2d ce 3a 52 ff ef 3a b0 ac f4 bc 2f 8c 20 3d
       0.0015730067 0.0018310344 -0.0298675 0.03919619
0003f0 4b 65 82 3c bc 2d 74 bc 51 c8 c3 3a a0 53 27 bd
       0.01591744 -0.014903482 0.0014937018 -0.040851235

fc1.bias f4 [120]
000000 28 fd cd 3c f5 c1 d8 bc e1 5e 27 3d 2f 37 ad 3c
       0.025145128 -0.026459673 0.040861968 0.021144478
000010 65 b9 cf 3c 1b 92 a6 3c b3 b5 d2 3b 3e 19 84 3d
       0.025356958 0.02033334 0.0064303516 0.06450127
000020 d5 91 fc bc 99 b9 ac bc 94 81 26 bd 56 32 28 3d
       -0.030831257 -0.021084594 -0.04065092 0.04106363
000030 31 02 09 bc 74 f2 4e bd 3e 77 bd 3c c8 85 51 3b
       -0.008362339 -0.05052419 0.023128148 0.003197061
000040 b5 fd 89 ba d6 e2 e2 bb a1 5e e4 3c d2 7f ac 3d
       -0.0010527881 -0.0069240136 0.027877154 0.08422817
000050 d3 17 10 bd 75 d2 11 3d d2 9d e6 3c 98 d7 3a 3d
       -0.03517897 0.035601098 0.028151426 0.045615762
000060 e4 9a 67 3c 31 5d 40 bd fd 1c 93 3d 38 cd 58 bd
       0.01413605 -0.046963874 0.071832635 -0.052930087
000070 ca a9 9b bc 74 cd 82 3d ce 8a c3 3c b8 d8 14 3d
       -0.01900186 0.06386843 0.023869898 0.03633949
000080 dc f6 dd bc 48 8e 88 ba da 0a 85 bd 21 96 f4 3c
       -0.02709525 -0.001041838 -0.064962104 0.029856743
000090 f6 22 72 3d 48 ce 45 3d d8 c0 f2 bc a6 79 68 bc
       0.059115373 0.04829243 -0.02963297 -0.0141891595
0000a0 c4 ea a3 bb 0b 99 d9 b8 a5 dc 83 3d 36 58 4a 3c
       -0.0050023515 -0.00010375873 0.06438569 0.012350133
0000b0 7a 50 9f 3c 11 bd c1 3d 80 e1 6a bc e8 31 c0 ba
       0.019447554 0.0945989 -0.01433599 -0.0014663311
0000c0 68 05 25 3d b2 95 2f bc d1 a9 70 bb 39 b4 8b bb
       0.04028836 -0.0107168425 -0.0036722312 -0.0042634276
0000d0 2a 5b 08 bd 94 ae 9d bd d2 f9 db 3b 49 2c 17 3c
       -0.033290066 -0.07699314 0.0067131305 0.009226867
0000e0 0a 9a 54 3c 16 e2 a8 bc d9 a8 26 3c f9 15 23 bc
       0.012976179 -0.020615619 0.010172092 -0.009953969
0000f0 f8 97 1e 3a d0 f7 05 bd 92 5a 5e 3d 00 18 81 bd
       0.0006049867 -0.032707036 0.054285593 -0.06303406
000100 6d 5b 57 3c 28 e4 a8 3c 5d bb e7 3b 0d e2 14 bc
       0.013144356 0.020616606 0.007071896 -0.009087098
000110 b8 9c 29 bd b3 e7 2a bd 82 de c1 3c 7d f3 8d 3c
       -0.041409224 -0.04172487 0.02366567 0.017328018
000120 33 64 40 3c dd 5b 3d bd 19 25 5d 3c 67 5c b1 bb
       0.011742639 -0.046230186 0.013497614 -0.0054126265
000130 64 44 05 bb f4 1e 71 3c c0 26 8c 3d e8 47 89 bc
       -0.0020334953 0.014716852 0.068433285 -0.01675792
000140 0f 6c 88 bb b7 8d 19 bc 61 43 a5 3d 8d ae 31 3d
       -0.004163272 -0.009372166 0.08069492 0.043379355
000150 68 6a 0d 3d c0 67 22 bd 01 d4 9e bc a5 11 53 bd
       0.034525305 -0.039649725 -0.0193882 -0.0515305
000160 f8 90 3e bc 49 d8 03 bd f9 f6 e4 3c 29 8e 88 bc
       -0.011631243 -0.032188687 0.027949797 -0.01666935
000170 59 c6 c2 3c a4 55 45 bc f1 6d fd bb ff fe 26 3c
       0.02377622 -0.012044344 -0.0077340533 0.010192632
000180 18 2f 9f 3d 3b 87 aa 3c 67 ce fc bc f9 d7 51 3c
       0.07772654 0.020816436 -0.030860139 0.01280784
000190 e0 16 41 3d 79 4e f4 bc cb c9 66 3c 07 8a a4 ba
       0.047140956 -0.029822575 0.014086197 -0.0012553342
0001a0 a9 69 02 bd 37 a8 9f 3c 56 9a f2 bc ab a0 14 bd
       -0.031839047 0.01948939 -0.029614609 -0.036286037
0001b0 58 fd 47 bc 6c f8 68 3d 07 a2 90 bc dd ba 9a bc
       -0.012206398 0.05687754 -0.017655386 -0.018887931
0001c0 6e eb c5 3c 65 2a 4d 3d 39 69 66 3d 9c 32 ec 3c
       0.024160113 0.05008926 0.056252692 0.028832726
0001d0 02 21 3c bd 7f 25 22 3d 84 97 f6 3c ca 7c c2 bc
       -0.045929916 0.03958654 0.030101545 -0.023741145

fc2.weight f4 [84, 120]
000000 49 95 68 bd 32 92 c2 3b 5c 77 c2 3d ec 55 a1 3d
       -0.056782994 0.005937838 0.09495422 0.078777164
000010 ca d0 cf ba a8 29 75 3d a2 fa 84 bd 04 a3 0c 3e
       -0.0015855071 0.05985418 -0.06493117 0.1373406
000020 2e 27 67 3c 05 b0 29 bb ad 47 ab bc 9c 7e 9d 3d
       0.014108462 -0.002589227 -0.020908201 0.076901644
000030 a7 e5 7e bd 73 62 50 bd 45 2f 3d 3d 24 97 b1 3d
       -0.062230732 -0.05087514 0.046187658 0.08671406
000040 a1 5b ac 3c fd 0c a7 bd a1 48 13 3e 35 49 ab 3c
       0.021039786 -0.08156774 0.14383174 0.020908931
000050 5d 7c b3 bd 88 2a 31 bd dc 27 12 3c d8 17 71 bd
       -0.08763955 -0.04325345 0.008920636 -0.05886063
000060 44 d3 85 3d ba 76 cb 3c 43 72 a6 3d 3a 0b 7b bd
       0.06534436 0.024836887 0.081272624 -0.061290003
000070 91 33 87 3d 54 e3 24 3c b9 f0 fe 3c b6 5e 28 bc
       0.066016324 0.010063965 0.031120645 -0.010276487
000080 84 ec 6e bd f5 d1 9a 3c 32 4c cd 3d 22 c4 12 bd
       -0.058331028 0.018898943 0.10024299 -0.035831578
000090 c9 02 62 bc ce 98 c4 bb e5 bc a6 bd d2 80 58 3d
       -0.013794609 -0.005999661 -0.081414975 0.052857228
0000a0 fd 62 b5 bd 1e 64 05 3d dc 99 c9 3c a1 5a 2a bd
       -0.08856771 0.032566182 0.024609499 -0.041590337
0000b0 15 6e 2c bd 31 8d f6 3c 7e 51 98 bd db cb 12 bd
       -0.04209717 0.030096622 -0.074374184 -0.035838943
0000c0 ba 4d df 3c ae 54 b0 3c c1 20 82 bd 7d cf 79 bc
       0.027258743 0.021524753 -0.063539036 -0.015247223
0000d0 ba f7 83 3d 3c 54 7b bd 7e d9 66 bd 78 56 83 3d
       0.064437345 -0.06135963 -0.05635976 0.06412977
0000e0 a8 e2 d2 3d d8 cf 6b bd 6a 56 48 bd 3a 87 b6 bd
       0.102971375 -0.057571262 -0.048910536 -0.08912511
0000f0 f9 bf 34 3c 6f 8c 96 3d ce 7f 08 3e cd a6 9c 3c
       0.011032098 0.07351004 0.13330004 0.019122506
000100 fd e7 c9 bc ca 28 df 3c 62 c9 ac 3d d2 a9 8f 3d
       -0.024646753 0.02724113 0.08436848 0.070148125
000110 f1 d4 f1 3c fe 03 1b 3c c0 4d 31 bd b5 64 85 bd
       0.029520484 0.009461401 -0.04328704 -0.06513349
000120 47 a8 8b 3d 62 ae 22 bd 99 72 9e 3d 35 69 c7 bd
       0.06819206 -0.039717086 0.077367015 -0.097368635
000130 61 fd 1b 3d 69 a0 65 3c 96 c7 35 3d 1e d2 d9 3d
       0.038083438 0.014015296 0.044379793 0.1063578
000140 9c 5d 72 3d 07 92 01 bd 9f f6 9d 3d 41 4b 21 bd
       0.059171304 -0.031633403 0.07713055 -0.03937841
000150 75 ed 45 bd 7d 9a 2e bd 56 50 5b bc c8 91 49 3c
       -0.04832216 -0.0426278 -0.013385853 0.012302823
000160 24 b2 99 3b 18 40 be bd 20 1f 83 3b 08 45 b9 3d
       0.0046904255 -0.09289569 0.004001513 0.0904637
000170 7d 62 2a 3b 5e 93 bf bc a9 60 9b 3d 72 74 24 3d
       0.0025998645 -0.0233857 0.07586796 0.040150113
000180 e7 f5 0b bc a6 93 a7 bd e8 1f 6f 3d ff 72 81 3d
       -0.008542514 -0.081824586 0.058380038 0.06320762
000190 da 05 ab 3b 24 25 16 bd a6 13 c7 3c fd 30 9d bd
       0.0052192034 -0.036656514 0.024301361 -0.076753594
0001a0 1d a6 e0 bb 97 81 e1 3c 4a d3 54 bc 36 39 1e 3d
       -0.0068557397 0.027527614 -0.012989828 0.03862878
0001b0 d0 d1 19 3d 6e a5 1d 3d 4b 3a 80 bd 58 21 3b bd
       0.03755361 0.038487844 -0.062611185 -0.045686096
0001c0 c2 64 9d bc e5 19 3f bc fb 77 e7 3c 76 a3 9a bd
       -0.019213084 -0.011663889 0.028255453 -0.07550709
0001d0 10 8c c4 3d 5d fa 2a 3d d6 86 87 bd 56 3a 5e 3d
       0.09597027 0.04174267 -0.06617515 0.054254852
0001e0 61 69 d8 3d 83 98 35 bd ff 91 8a 3c 8b 45 7b bc
       0.105669744 -0.0443349 0.01691532 -0.015336405
0001f0 be 19 06 3c 8d 8b ec 3c 84 d2 8e bd 8b 5d 22 3e
       0.008184848 0.028875137 -0.069737464 0.15855996
000200 3f d0 f4 3c f8 54 71 bd dc 0c 8f bd a5 ad 56 3d
       0.029884456 -0.058918923 -0.069848746 0.052411694
000210 50 82 e3 bd 5a eb fc bc c3 ad 89 3c e8 c3 83 bd
       -0.111088395 -0.030873943 0.016806489 -0.064338505
000220 21 96 b4 bc 7d be d3 3c e8 69 15 3d a1 5c 78 bd
       -0.022044243 0.025847668 0.036477953 -0.060635213
000230 03 d5 01 bb e6 a5 f8 3c b9 8f 26 bd 69 5a 97 3b
       -0.0019810803 0.030352544 -0.04066441 0.004618932
000240 8a e2 2c 3d 59 0f f2 3a 36 b4 6b 3c 03 21 c8 3c
       0.042208232 0.0018467709 0.014386227 0.024429804
000250 82 8b 98 3d a7 01 6e bd 02 45 d9 bd a0 36 39 bd
       0.07448484 -0.058107045 -0.10608865 -0.04521811
000260 60 ea 8f 3d c9 a2 c0 bd bf 59 06 3e be ed c6 bd
       0.07027125 -0.09406049 0.13120173 -0.097133145
000270 ab 76 1b bc af 5b 97 bd e0 95 51 bd 6d e1 8a bd
       -0.009488742 -0.07390534 -0.051168323 -0.06781278
000280 ec ad 26 3d 20 80 af 3d dc 7c 01 bc 1f d0 44 bd
       0.04069321 0.0856936 -0.007903304 -0.048050042
000290 26 1f 69 3d 8f 19 0a 3d ea fb fd 3d 4f e1 c0 bd
       0.05691447 0.03371578 0.124015644 -0.09417974
0002a0 4c a4 29 bc 9a 82 29 bc c9 ce 32 bd be 5c 80 bd
       -0.010354113 -0.010346079 -0.043654237 -0.06267689
0002b0 4f ac 8b bd c8 4b 3e 3d ec b1 ee bc cc 27 70 bd
       -0.06819975 0.04645899 -0.029137574 -0.058631703
0002c0 7d bf c6 3d 40 97 05 3d 2b ea 02 3e 7c ed 71 3c
       0.09704492 0.032614946 0.1278464 0.014766093
0002d0 16 3a 88 bd 0e 53 9b 3c 1f 3c a8 3d 93 d2 9e 3d
       -0.06651704 0.018960502 0.08214592 0.077550076
0002e0 2c b8 5b 3d 8d b0 d7 bd a6 4c 44 3b d3 3b b0 3d
       0.053642437 -0.10531721 0.0029952913 0.086051606
0002f0 2a b6 1f 3c b7 de c6 bc 7e e3 f9 3d d8 ef 19 3d
       0.009748021 -0.02427612 0.12201594 0.03758225
000300 34 5e 70 bd f5 3f 88 bd f9 a7 da 3d d5 2f 5d bd
       -0.05868359 -0.06652824 0.106765695 -0.054000694
000310 b9 f8 b3 3b 10 c5 c4 3d db a8 99 3c 3d 0d ff 3d
       0.0054922965 0.09607899 0.018757274 0.12453697
000320 fc 9b 91 bc 43 09 db 3c be 43 56 3d 97 21 97 3d
       -0.017774574 0.026737815 0.052310698 0.07379454
000330 e2 f3 2e bc 78 1b c6 3d 43 23 d7 bb aa f2 82 bd
       -0.010678263 0.09673208 -0.006565483 -0.06393941
000340 f0 8a 63 bd c2 10 57 bd 77 0b 8d 3d e2 ae 83 bd
       -0.055552423 -0.052506216 0.06886952 -0.064298406
000350 9c 56 c1 bd 3e c4 89 3c 85 f3 98 bd 9d 7f d0 bc
       -0.094403476 0.016817208 -0.07468323 -0.025451476
000360 1b 5c 84 bd da 46 9a bd 61 c3 c1 bd 78 0e 3d bd
       -0.0646288 -0.07533045 -0.09461094 -0.046156377
000370 fa 5a a1 3d ee 52 17 bd 6f 19 04 bd 7e d5 91 bd
       0.078786805 -0.036944322 -0.032250818 -0.071207985
000380 f4 0c d3 3d 6e 57 35 bd c2 bd 10 bc 50 8d 87 3d
       0.10305205 -0.044272833 -0.008834304 0.0661875
000390 10 1b 9b bc 5b b6 47 bc cb 9d 9f 3c 36 cb b0 bc
       -0.018933803 -0.012189473 0.019484421 -0.021581274
0003a0 b9 f1 f2 bc 08 be ec bc 32 7e 13 bd 25 e6 2b 3c
       -0.029656278 -0.028899208 -0.03600902 0.010491882
0003b0 f5 10 2c 3d 06 3b 1b bd 4b 00 bc bd ef 3d 35 bd
       0.04200836 -0.037898086 -0.091797434 -0.044248518
0003c0 21 3f 0c 3d 11 59 26 3b 7a 59 b9 bd 96 90 be 3d
       0.034239892 0.0025382678 -0.090502694 0.09304921
0003d0 5e 81 b7 bd a2 c9 0d 3d 4a 41 59 3d d8 10 29 3d
       -0.08960222 0.03461612 0.05304078 0.04127583
0003e0 ae 06 33 bd 55 10 89 3c f3 77 cd 3c 89 eb c8 3d
       -0.043707542 0.01673142 0.02508161 0.0981055
0003f0 92 ae 4c 3d ae 3c af bd 20 34 a7 3d 02 3b 9b 3d
       0.04997117 -0.085564956 0.08164239 0.07579614

fc2.bias f4 [84]
000000 1f 7b 05 3e d6 e1 c0 bd 40 dd 0f 3e 5e 41 dc 3c
       0.13035248 -0.09418075 0.14049244 0.026886638
000010 7f d2 ed 3d 11 99 2c bd 5a 45 ce bc 2c 24 31 bd
       0.116124146 -0.042138163 -0.025179554 -0.043247387
000020 10 2f 17 bd f9 9d c2 3d 6a 17 fd bd 9e 59 99 bd
       -0.036910117 0.09502787 -0.123579815 -0.07487796
000030 c0 6b 30 3b 51 97 54 3d bb b6 4a bd f9 15 0d 3c
       0.0026919693 0.05190212 -0.04949067 0.008611196
000040 32 e2 32 bc c2 39 2f 3b 2c 53 22 bd 32 5b 4c bd
       -0.010918187 0.0026737307 -0.0396301 -0.049891658
000050 ae 28 a7 bd 50 a3 4a bd 3c f0 3d bd 6b 84 97 3d
       -0.08162056 -0.049472153 -0.046371683 0.073983036
000060 ca 32 0f be 90 95 23 3e d8 b2 8b 3d 29 0e f4 3c
       -0.13984218 0.15975022 0.06821221 0.029791908
000070 cb 21 6f 3d f4 6c 5b 3c fa e5 0d bc 61 c4 51 3d
       0.058381837 0.013392676 -0.008660788 0.051212672
000080 d9 dd b3 3a a3 cf d2 3c 55 3b 67 3e a4 d1 50 3d
       0.0013722732 0.025733775 0.22581227 0.05098118
000090 fa 93 09 3c 01 36 dc bb 8c 8a c3 bc 22 4a 9f bd
       0.008397097 -0.006720305 -0.023869775 -0.077778116
0000a0 ef b3 bc 3d e0 b3 e8 3d ed 9c 72 bd ae ab 08 bd
       0.09214007 0.113624334 -0.059231687 -0.03336685
0000b0 e8 ce 98 bc c2 2c 3e 3d c5 4f af bd c1 3f 0d bd
       -0.018653348 0.046429403 -0.08560137 -0.03448463
0000c0 0e 46 96 3d 7c a8 86 3d 40 4c 15 3d 1f 15 81 3d
       0.073375806 0.065751046 0.03644967 0.06302857
0000d0 43 87 7b bd f8 e9 d5 bb 0c 03 42 bd 1e 81 d1 bc
       -0.061408293 -0.0065281354 -0.047366187 -0.025574263
0000e0 9e a5 96 bd ba 47 3e 3d 08 b1 46 3c cc f2 a9 bd
       -0.07355808 0.046455123 0.0121271685 -0.08298263
0000f0 f9 e7 1a bd c2 9a b5 3d 79 e2 09 bc a0 0e 19 3d
       -0.037818883 0.08867408 -0.008415812 0.037367463
000100 de 02 af 38 ad ed 1b bd 66 c7 a3 bd ca c4 a4 3d
       8.345184e-05 -0.038068462 -0.079970166 0.08045347
000110 c7 6b 08 3d 68 a1 0d 3d 26 80 f0 bc 29 15 5a bd
       0.03330591 0.034577757 -0.029357981 -0.053242836
000120 5d 2a 44 bd f7 e9 99 bd 6f 66 44 bb c9 53 95 bd
       -0.047891963 -0.075153284 -0.0029968282 -0.072913714
000130 6a f1 8d 3d 4b e3 c1 bc b1 11 1b 3e ec 32 fe 3c
       0.06930812 -0.023667952 0.15143467 0.03103014
000140 a3 23 98 3c 90 c9 9d 3c 43 cc 9f 3e 22 9f 63 bd
       0.01857168 0.019261152 0.31210527 -0.055571683

fc3.weight f4 [100, 84]
000000 50 a3 07 3e e6 96 8f 3c ee 6e 7c 3e 83 ee 95 3d
       0.13245893 0.017528009 0.24651691 0.07320883
000010 dd 23 c7 3d 9b 4d 19 bd 0a d3 8d ba be af 19 3e
       0.09723637 -0.037427526 -0.0010820341 0.15008447
000020 b0 ca b7 3d 71 8b 10 3e 5a 69 16 bc 09 36 fc 3d
       0.089742064 0.14115693 -0.009180391 0.12314994
000030 45 d7 15 3e 98 f1 a0 bd 06 26 03 3e c8 ee db bd
       0.146329 -0.0785858 0.12807474 -0.10738903
000040 27 24 46 3d 85 e1 c4 bd 71 a8 9b bd 73 a1 c8 bb
       0.04837432 -0.09613327 -0.07600487 -0.006122762
000050 f5 6f 88 3d a8 82 d1 3d d2 22 ba 3d ce a4 a0 3d
       0.06661979 0.10229999 0.09088673 0.07843934
000060 63 96 1a be 5c 30 93 3e ea 0a 19 3e ba 34 3b 3e
       -0.1509643 0.28747833 0.1494557 0.18281832
000070 2b 93 1f bd d9 9f 3d bc 0c e7 38 bb a2 25 be 3d
       -0.03895871 -0.011573755 -0.0028213887 0.09284522
000080 3d af 4a 3c 23 38 99 bd 59 52 7a 3e 38 2d 85 bd
       0.012370882 -0.0748141 0.24445476 -0.065027654
000090 ad 83 ea 3d f9 e6 17 3d c0 b6 2d 3e 73 a6 2a bd
       0.114508964 0.037085507 0.16964245 -0.041662645
0000a0 ed 97 e6 3d 69 63 25 3d df 66 8e 3d 56 83 a5 bd
       0.11259446 0.040378008 0.06953215 -0.08081691
0000b0 f0 f1 89 bd 79 81 ab 3b ac 78 fb 3c bd d0 41 bd
       -0.06735599 0.00523394 0.03069719 -0.04731821
0000c0 a9 ae b0 bc 13 37 14 3e 17 f8 6e 3d 1a 3c 18 bc
       -0.02156766 0.14474134 0.058342066 -0.009291673
0000d0 7a 81 26 3c 45 a6 91 3d 59 4d a3 bd 42 f9 25 3e
       0.010162706 0.071117915 -0.07973737 0.16208366
0000e0 b2 3b 65 bd 0f 91 ed 3d 90 34 e6 bb 89 a7 82 3d
       -0.055965133 0.11599933 -0.007025309 0.06379611
0000f0 31 dd 04 be c5 2e 91 3d 89 aa 5a 3d ef ac 42 3e
       -0.12975003 0.07088999 0.05338529 0.19011281
000100 00 4c 47 3d 7e 3b 47 3e d6 ab 54 3d e9 9f 97 bd
       0.048656464 0.19456288 0.051921688 -0.07403547
000110 84 41 0a 3e ac 25 d3 3c e2 f4 98 bd bd 46 bd 3d
       0.13501555 0.0257748 -0.07468583 0.09242008
000120 3d 33 a6 3d 77 fc cb 3d 4b dd 9b 3d 03 a3 ab bc
       0.08115242 0.09960263 0.07610568 -0.020951753
000130 cf 3b df 3d 59 00 3b be 7a 9f 18 bd 0b e3 66 bd
       0.109000795 -0.18261851 -0.037261464 -0.05636887
000140 c7 84 56 3b e2 bb 66 bd 81 9d 8c 3e b6 f5 82 bd
       0.003273295 -0.056331523 0.27463916 -0.06394522
000150 7f 7f ea 3d 08 42 45 3e 52 bd ac 3d 51 6f 19 3c
       0.11450099 0.1926347 0.084345475 0.009364919
000160 2c d9 50 3e 27 ec 91 bd 6e 5e 09 3e 2c 0c b3 bd
       0.20395344 -0.071251206 0.13414928 -0.08742556
000170 2c 2c 1d 3d 0d f9 f8 bd d1 c0 17 3e aa 6b 9a bc
       0.038372204 -0.12156878 0.14819647 -0.018850166
000180 1a 6c 17 3e 75 df e0 bd 7b 4b d2 bd 3b d1 d6 3d
       0.14787331 -0.10980121 -0.10268303 0.10489126
000190 61 f7 d7 3c c1 d1 65 3d d9 b5 13 be a7 eb 07 3d
       0.026363077 0.05610824 -0.14424838 0.03318372
0001a0 d8 71 c2 3c 2a 1f 4c 3e da 7f a8 bd 7f d9 bd 3d
       0.023735926 0.19933763 -0.08227511 0.0927
0001b0 58 68 3a 3e 4c 05 1f 3d 47 41 4b 3e 96 2d d9 bd
       0.18203866 0.03882341 0.1984912 -0.10604398
0001c0 68 d3 4e 3d cb 8a 25 3d c1 56 58 bd 62 8f db ba
       0.05049458 0.040415566 -0.05281711 -0.0016751105
0001d0 52 71 69 bc c7 6a 79 bd 9c 44 be 3d 5f 14 48 3e
       -0.014248209 -0.060892846 0.0929043 0.19539021
0001e0 96 54 85 3c c6 76 a3 3d 77 a9 87 3d 4a 82 10 3c
       0.016275685 0.079816386 0.0662412 0.008820126
0001f0 dd 6d db 3d e7 88 0a 3e b7 11 60 3e a0 f1 bb 3d
       0.10714314 0.13528787 0.21881758 0.09176946
000200 5a 8b a4 bc a2 bc 6a bc a0 05 03 3d 61 57 ec 3c
       -0.02008598 -0.0143272 0.031987786 0.02885026
000210 4b 3d 30 3d a0 5b 1f 3e 93 95 d8 3d 97 4c 71 3e
       0.043027204 0.15562296 0.10575404 0.23564373
000220 7e 58 ed 3d be 3c 2a bd d7 6b c8 3d cd 15 0d 3e
       0.11589144 -0.041561835 0.09786194 0.13777848
000230 e5 62 9d bc d2 b2 d0 bd cb b9 80 3d 0a d7 b3 bd
       -0.019212196 -0.10190357 0.06285437 -0.0878125
000240 ca 55 22 3e 4c f1 45 be c8 00 5e 3e 38 b5 2a 3e
       0.15853038 -0.19330329 0.21679986 0.16670692
000250 2c a7 d3 bd 71 0f 85 3e b6 e1 45 3d 9f bf 8c 3b
       -0.1033462 0.25988343 0.048310958 0.004295304
000260 ab 92 5b bd 85 76 67 3c a0 17 8a 3d 87 8f 40 3c
       -0.05360667 0.014127378 0.06742787 0.01175297
000270 89 97 6f 3d a6 86 8f 3d bc 5e 94 3d a5 94 68 3e
       0.058494125 0.07008104 0.07244632 0.22712953
000280 a1 2b 5a 3d c5 1f 98 3c 5c 77 d1 bd f6 14 23 bd
       0.053264264 0.018569836 -0.10227844 -0.03981491
000290 15 13 3d bd 73 84 b0 3d 4c b4 55 3d e1 1c 80 3d
       -0.046160776 0.08619013 0.052173898 0.06255508
0002a0 e2 64 60 3e 53 e3 14 3d 67 f5 1f 3e a5 69 ca bd
       0.21913484 0.036349606 0.15620957 -0.09883431
0002b0 b1 49 3c 3e da bc bf bc 1b ba df 3d 86 a4 94 bd
       0.18387486 -0.023405481 0.10924169 -0.07257943
0002c0 c4 b6 fb bc 06 65 a8 3d f7 11 db bc b8 c7 0b 3e
       -0.030726798 0.08222394 -0.026741965 0.13650405
0002d0 1b c4 51 3d d5 2a cc 3d 47 59 8f bc 8b e5 e4 bc
       0.05121241 0.09969107 -0.017498625 -0.027941486
0002e0 bc 83 cb bd 19 4c d1 bd de 99 3c 3e c6 97 24 bd
       -0.09937236 -0.102195926 0.1841807 -0.040183805
0002f0 e6 72 c0 3d c8 11 85 bd fd c5 ab bd ca 54 63 3d
       0.09396915 -0.06497532 -0.08387373 0.055500783
000300 c2 3e fb bd 75 a2 09 3e d3 67 4b 3e a5 91 0d 3c
       -0.122678295 0.13440879 0.19863825 0.008640681
000310 bd 57 1f 3d 7a 62 a0 bd 57 13 31 3e 8c c2 3e 3e
       0.038902033 -0.07831283 0.17292534 0.18628901
000320 f0 6b 10 3e 28 08 d0 bd 87 26 bd 3e 4d 4a 88 3d
       0.14103675 -0.10157806 0.36943457 0.06654797
000330 55 a0 eb bd df eb aa bd d8 32 77 3d 09 1d 55 bd
       -0.1150519 -0.0834577 0.060351223 -0.052029643
000340 dc 26 18 3e 9c 09 f3 3d 50 fd 25 be bc f9 9b bd
       0.14858574 0.11867067 -0.16209912 -0.076159924
000350 d9 6c c6 bd 54 cf 3d bd fd a6 f6 bc 84 2f 66 3c
       -0.0968873 -0.0463403 -0.030108923 0.014049415
000360 82 65 c2 3d a5 9d 6c 3d 32 71 7a 3d ab a8 8a 3d
       0.09492017 0.05776753 0.061143108 0.06770452
000370 9e af 87 3d b0 40 b6 bd 92 c9 2a bd 8f f1 92 bc
       0.06625293 -0.08899057 -0.04169614 -0.01793745
000380 92 c3 bd bb d1 e1 17 bd 80 a4 3f ba 71 d4 d5 bd
       -0.005791136 -0.03708059 -0.0007310584 -0.104409106
000390 48 5c a9 3c ce 0e c2 3d fa 00 ed bd 28 3d 54 bd
       0.020673886 0.0947548 -0.11572452 -0.051816136
0003a0 b4 cd 95 3d c1 f7 37 be 68 6c 2e bc cf 69 0a be
       0.073146254 -0.17965604 -0.010645963 -0.13516925
0003b0 c1 0e ad bd 7e aa da 3a f8 fe 5d bc 8b ac 28 bd
       -0.0845008 0.0016682891 -0.013549559 -0.041180175
0003c0 b8 fe aa 3d fb a8 82 3d 77 f5 94 bd 38 5b c0 bc
       0.08349365 0.06379887 -0.07273381 -0.023480996
0003d0 16 49 81 3e 52 80 2a be 08 f8 59 3e 19 0f c3 bc
       0.25251073 -0.16650513 0.21286023 -0.02381091
0003e0 d8 42 96 bd a5 a4 89 bd 41 d0 e4 3e 85 a2 80 bd
       -0.07336968 -0.067208566 0.44690135 -0.06280998
0003f0 e5 3c 66 3e 0d c9 36 3e 82 bb c9 3d 1c bc c3 3d
       0.22484167 0.17850132 0.098502174 0.095573634

fc3.bias f4 [100]
000000 40 db 69 3e 61 60 7d 3d ff 59 e5 3e 77 b4 59 3e
       0.22837543 0.061859492 0.44795224 0.21260248
000010 eb 28 14 3f 35 5f 15 3e 76 06 a9 3e 7c 82 00 3e
       0.57874936 0.145871 0.33012742 0.12549776
000020 15 8d e4 3e 2f d7 77 3c 56 7a 89 3d a6 aa 9e 3d
       0.44638887 0.015126987 0.06712787 0.07747392
000030 7f 7b 07 be 1b 38 e7 bd ce ae ee bd d5 36 da bd
       -0.13230704 -0.11289998 -0.11654435 -0.1065499
000040 89 a3 91 ba 43 e7 a3 bb 9b e0 51 3d 52 98 74 3d
       -0.0011111359 -0.005001934 0.05123959 0.059715576
000050 6f 6c 20 bc 9f 07 dd bc c3 b5 1a 3c 4c c3 0f bc
       -0.009791478 -0.026981173 0.009442749 -0.00877459
000060 38 b3 e8 bd c2 f0 c7 bd fa 88 4f 3d 44 60 f0 bd
       -0.11362308 -0.09762718 0.05066774 -0.11737111
000070 be 15 27 bd 83 40 d9 bd 00 86 97 3d 26 a2 d2 3c
       -0.04079222 -0.10608008 0.07398605 0.025712084
000080 09 f9 dd 3c 77 01 8b 3d 63 fd 81 bd 5f 14 83 bd
       0.027096288 0.06787389 -0.06347158 -0.0640037
000090 7c 05 52 3d 0f 3f e7 bd a3 a1 e9 bd 08 5e 70 3d
       0.05127476 -0.11291324 -0.11407783 0.058683425
0000a0 64 54 b6 bd 8f d6 dc bc 16 f2 8c ba 52 25 a3 bb
       -0.08902815 -0.026957778 -0.00107533 -0.004978814
0000b0 4e ad 96 3d 7f 32 ec 3c bd c5 83 bd 7c ea 15 3c
       0.07357274 0.028832672 -0.064342 0.009150144
0000c0 3e dd b0 3c b3 a8 cc 3b 9a b6 64 3d ec 02 01 bd
       0.021589871 0.0062456965 0.055838205 -0.031496927
0000d0 8f 29 3e bd 48 b1 3b bd 93 5e 61 3d 0c 6b dd bd
       -0.046426352 -0.045823365 0.055021834 -0.10811433
0000e0 9e af 45 3d 7d 9b 0a be cd 9e 85 bd 00 4e cb bd
       0.048263185 -0.13535877 -0.065244295 -0.09926987
0000f0 97 7e 4e bd 83 02 0b bd 9e 48 7f bd 97 e6 a3 bd
       -0.050413694 -0.033937942 -0.062325113 -0.08002966
000100 89 87 9d 3c bc 2d 94 bd d8 c7 f1 bd 17 17 df bd
       0.019229667 -0.07235286 -0.11805695 -0.10893076
000110 b8 0e f5 bd 2b e2 09 3d c6 5f 99 3d cc e3 9b 3d
       -0.11965698 0.033662956 0.074889705 0.07611808
000120 69 26 a9 bd 29 4b 9b bd b4 c2 07 3b 52 4e 95 bd
       -0.08259279 -0.07582695 0.0020715417 -0.07290329
000130 c7 ef 6e bd ff 19 d7 bd 7e 5a 9c bd b9 87 b6 ba
       -0.05833414 -0.10503005 -0.076344475 -0.0013925947
000140 5c a4 de bd a6 12 14 bc cb f5 4c 3d 9e 88 8c bd
       -0.10871193 -0.009037649 0.050039094 -0.06861995
000150 0c bf cb bd 76 28 f2 3c 8d 89 b8 bc be 2e 51 3d
       -0.09948549 0.029560309 -0.022526527 0.051069967
000160 af 6d 73 bb 96 fa 8f 3d 7a d2 12 bc 3f 5c 85 3d
       -0.0037144234 0.07030217 -0.008961314 0.06511735
000170 4a 55 78 3c 2d 46 a0 bd d3 b6 3d 3d 88 c2 54 3c
       0.015157053 -0.07825885 0.046316933 0.012985833
000180 fe de c9 bc e6 ac 32 3d c0 66 b4 3c b8 be 2d bd
       -0.024642464 0.04362192 0.022021651 -0.04241821
